best_model.pt (torch, 119074 bytes, 29 tensors)

layers.0.edge_model.mlp.net.0.weight f4 [64, 16]
000000 c2 91 65 3e 31 e6 39 3e d9 8c f4 bc ce bb 52 3e
       0.22418883 0.18154217 -0.029852318 0.20579454
000010 cb 0f 53 bd b2 40 b6 bc d8 72 f5 bd f3 43 ef 3d
       -0.051528733 -0.022247646 -0.11984795 0.11682882
000020 a3 80 e9 3e fa b7 d9 be 8e 36 97 3e d1 80 a2 bd
       0.45605955 -0.42523175 0.2953381 -0.07934726
000030 60 99 2a 3d 4b 93 60 3d a6 34 fa 3d 74 c8 66 bd
       0.041650176 0.05482797 0.12217073 -0.05634351
000040 6e 01 7f 3e 6e 63 79 3d 3b bd 61 bd 92 30 d0 3d
       0.24902889 0.06088584 -0.055112105 0.10165514
000050 02 39 c2 bd d0 45 af bd b9 92 e8 bd 9d 2a 08 3e
       -0.094835296 -0.085582376 -0.1135611 0.13297506
000060 be 2d 5b 3d 8e cc 95 be 08 94 9f 3d 4c 8b 4a be
       0.05351042 -0.29257625 0.077919066 -0.197797
000070 77 5b 3b bd 56 39 8c be 25 ca 4d 3e 7d 5c 91 be
       -0.045741525 -0.27387494 0.20096643 -0.28390875
000080 df 99 71 3e e9 00 5f 3d 5a a4 26 bd a4 b0 30 3e
       0.23593853 0.054444227 -0.04068408 0.17254883
000090 87 92 15 3d 7f f6 2f 3e db 45 cc 3c 5c 70 bd bd
       0.036516692 0.17183875 0.024935653 -0.092499465
0000a0 70 25 9e 3e 65 0e 03 be 53 53 0e 3e ce 0b 51 3e
       0.30887938 -0.1279846 0.13898973 0.2041466
0000b0 36 bb ef 3d e9 a7 e7 bd 94 d3 f6 3d f1 cf c3 3c
       0.117056295 -0.11311323 0.12052074 0.023902865
0000c0 ec c4 32 3e f6 b1 03 be 3a ff 38 be f8 ef e3 bd
       0.17457932 -0.12860855 -0.18066111 -0.11129755
0000d0 5d 33 2e be a0 5e 59 3e fe c9 b8 3d 4a 23 e6 3d
       -0.17011781 0.21227503 0.09022902 0.112371996
0000e0 ee 0c a4 3e d5 39 d5 bd 4d e5 77 3e 2f 1e 6d be
       0.32041115 -0.10411421 0.24208565 -0.23156045
0000f0 22 5f ea bc 5f 63 37 be 0c 85 80 3d 6c 83 d5 bd
       -0.028609816 -0.17909001 0.06275377 -0.10425457
000100 66 3a d2 3d d1 9c ad bc 91 61 6b 3e 05 8f dc bd
       0.10265045 -0.02119294 0.22986437 -0.10769466
000110 69 12 fd bd 86 dd 0a be 0c 00 7e 3e 9a eb cb 3d
       -0.12357027 -0.13561067 0.24804705 0.09957047
000120 86 38 df 3e 31 ee 74 be 33 b5 7c be f6 79 61 be
       0.4359781 -0.23918988 -0.24678497 -0.2201918
000130 c6 4a 5d be d0 c2 f9 3d 80 ad a0 3d 71 40 4c 3e
       -0.21610555 0.12195361 0.078455925 0.19946457
000140 c8 62 fe bd a7 63 02 be 2c a8 07 3e ec 7d 7f bd
       -0.12421185 -0.12733327 0.13247746 -0.062375948
000150 84 9f 33 3e b3 6e 85 bd 50 60 29 3e 02 48 44 be
       0.17541319 -0.06515255 0.16540647 -0.19168094
000160 54 93 1f be 87 94 9b 3d b2 75 58 3d ce 51 c4 bd
       -0.15583545 0.07596689 0.052846618 -0.095859155
000170 ca ba 27 3e 6a 5c 00 3e 4a 33 57 be 1d 87 09 be
       0.16379848 0.12535253 -0.21015659 -0.13430448
000180 96 3e 8e 3e 74 47 ca bd 2d 2e ec bc e8 3b 70 be
       0.27782124 -0.0987691 -0.028830612 -0.23460352
000190 58 af e2 bd f7 2b 63 3d 71 5e c2 3c e6 2a 12 be
       -0.110686004 0.05546185 0.023726674 -0.14274177
0001a0 bb 4a a7 3e 09 7d b3 be f9 77 47 be b1 0a 42 be
       0.32674202 -0.35056332 -0.1947936 -0.18949391
0001b0 78 97 9b be 0d 12 bf bd 5e 8d 94 3e eb bc 4f 3d
       -0.30389 -0.09329615 0.29014105 0.050717276
0001c0 d6 cb 49 3e 91 c1 44 be c4 9e c4 3b 8b 57 e7 bd
       0.19706663 -0.19214465 0.0060003716 -0.11295994
0001d0 23 fb b5 3d 2f c0 4b be 46 5e 5c bd ef 7d e3 bd
       0.08885791 -0.19897531 -0.053800844 -0.11108004
0001e0 61 80 86 3d 33 07 73 be ad b7 e2 3d 0b 45 85 be
       0.06567455 -0.23733215 0.110701896 -0.26029238
0001f0 3c eb 26 be 3a ac 83 be 27 be 24 be 4f ef 8e be
       -0.16300672 -0.25717336 -0.16088162 -0.27916953
000200 23 b9 86 3e 60 54 00 bd ca 82 89 3e 57 82 cd 3d
       0.26313123 -0.031330466 0.26857597 0.10034626
000210 f0 fd 1a be 30 9d bf 3d fb cb c0 bc e4 71 19 be
       -0.15135932 0.09356153 -0.023534765 -0.14984852
000220 ae 55 90 3d c2 af ed be 4e 1c 6c 3e da 17 31 be
       0.07047592 -0.46423155 0.23057672 -0.17294255
000230 ad b6 18 3e 6f d4 9e be 7a ef 0d 3e ab aa 77 be
       0.14913435 -0.3102145 0.13860884 -0.24186198
000240 02 d5 37 3c 0c 0c a4 3d 89 10 34 3e 93 16 6b 3e
       0.011220219 0.0801011 0.17584433 0.2295783
000250 b1 12 7b 3e fc 02 44 be e4 92 a6 3d fb 63 8f bd
       0.24518849 -0.19141763 0.08133486 -0.07001492
000260 74 4f 84 3e aa 9c 66 be 2e fe 9b 3e db 6f 79 be
       0.25841868 -0.225207 0.3046736 -0.24359076
000270 9a 82 fe 3d 0a 43 e0 3d f8 8f 5b 3d 5a 14 00 be
       0.12427254 0.10950287 0.053604096 -0.12507764
000280 d5 c4 85 3e 1c 3c b7 3d e1 7a 7f 3d 33 8e 3c be
       0.26126733 0.08947012 0.062373046 -0.1841362
000290 3c 24 03 3e f4 9a e6 bc 8a ec c2 bd e5 e0 68 3e
       0.12806791 -0.02815006 -0.095177725 0.2274204
0002a0 84 b9 9b 3e 86 d8 41 be b7 ef ee bd 85 e1 8d bb
       0.30414975 -0.18930253 -0.11666816 -0.0043298625
0002b0 cc bf f2 3d a5 8f bd bd 66 b2 33 be 4d 41 d7 bd
       0.118529886 -0.09255914 -0.17548522 -0.10510502
0002c0 41 4f 17 be d7 d8 02 3e 56 8a 68 3e ff 4b 45 be
       -0.14776327 0.1277803 0.22709021 -0.19267271
0002d0 2c 07 b3 3d 97 dc 07 3e 24 f1 90 3d a0 a4 99 bd
       0.08741602 0.13267742 0.07077244 -0.07502103
0002e0 d1 d0 ce 3e cf 98 af 3d 15 5a c8 3d 51 85 74 bd
       0.4039369 0.08574068 0.09782807 -0.059697453
0002f0 55 a3 b8 bd c9 21 cd 3c cd c4 82 bd 0d d1 b0 bd
       -0.09015528 0.025040524 -0.06385193 -0.08633623
000300 fb 98 5c 3e d1 4f 76 3e f1 0f 12 3d 01 08 dc bc
       0.21542732 0.24053885 0.035659734 -0.026859285
000310 17 4c 62 3c fa 50 5a bd 3a 2b 84 3d 80 9f 4e 3d
       0.013812087 -0.05329988 0.06453557 0.05044508
000320 50 c1 d4 bc 5a ed 85 be 30 40 9d 3e e7 b8 97 3d
       -0.025971085 -0.26157647 0.30713034 0.07408314
000330 70 51 3c bd fa 67 57 be de 5a 5b be 62 89 9a be
       -0.045976102 -0.21035758 -0.21421382 -0.3018294
000340 89 ba 32 bd e4 89 8e 3d 61 89 41 3e 0d fd d4 3d
       -0.043634925 0.06959894 0.18900062 0.10399828
000350 6c ff 51 be ca d3 30 be 3b 2e 2b bd 55 d4 73 3e
       -0.20507592 -0.17268291 -0.041792136 0.23811467
000360 1f 43 96 3e 7c cf 28 be 77 7b 07 3e 17 cc d2 bd
       0.29348084 -0.16485399 0.13230692 -0.10292833
000370 1c e1 55 be 13 3d 41 3e ab 83 ac bd bc b9 63 bd
       -0.20886654 0.18870954 -0.08423551 -0.055597052
000380 4f 89 14 be 7f ff 4d 3e b1 7e 8c 3e ba 29 f8 3d
       -0.14505504 0.20116995 0.27440408 0.12117334
000390 99 5e f4 bd 3f 08 7c be 22 e1 28 be 7c 80 5b 3e
       -0.119321056 -0.2461252 -0.16492131 0.21435732
0003a0 bc 68 a3 3e 6d 89 28 3e 06 4c 7a 3e 7b 78 62 bc
       0.31915843 0.16458674 0.24443063 -0.01382267
0003b0 6b 8f cd bd 69 b6 0b be 4b c3 81 be b9 67 8e be
       -0.100371204 -0.13643803 -0.2534431 -0.2781351
0003c0 6e 7d 24 3e fb 07 ac bd 9b 72 c1 3c 80 cb 0f be
       0.16063473 -0.0839996 0.023614218 -0.14042473
0003d0 ee f8 56 bc 3c b3 5a be d7 e0 03 be 38 b9 6f 3d
       -0.013120873 -0.21357435 -0.12878738 0.058526248
0003e0 b4 3d c2 3d 2c 9b 88 3c de 99 1b 3d 09 8c 47 be
       0.09484425 0.016675554 0.037988536 -0.19487013
0003f0 0d 74 b9 bd 35 ed 64 be 18 5c 04 be 27 2c a6 be
       -0.09055338 -0.22356112 -0.12925756 -0.3245556

layers.0.edge_model.mlp.net.0.bias f4 [64]
000000 45 c4 0c 3e a9 40 ba bc 8f 63 f2 3d f7 da fb bd
       0.13746746 -0.02273591 0.118353955 -0.122976236
000010 0f f2 8a 3d b9 cc 00 be d6 69 23 3e 54 ec 3c bc
       0.0678445 -0.12578095 0.15958342 -0.011530954
000020 6b c2 00 bd a1 45 3b be c2 85 0d 3d 63 56 8b 3e
       -0.03143541 -0.1828828 0.03455139 0.27214345
000030 1d 52 18 3e 3f 5b 00 be 66 85 90 3d 67 66 b6 3c
       0.14875074 -0.12534808 0.07056694 0.022265626
000040 87 6d 26 be d6 95 5f 3e 65 34 af 3d 7c 0f 8c 3d
       -0.16252719 0.21834502 0.08554915 0.06838891
000050 71 21 f4 bb 48 c8 f3 bc 8a 85 8f 3d c4 61 14 3e
       -0.0074502756 -0.029758587 0.070078924 0.1449042
000060 8b fc e4 3d 31 cb 22 bd a0 88 89 3e df f0 a1 bc
       0.11180981 -0.03974456 0.2686205 -0.019768177
000070 cb e6 02 be 1c 4a b9 bd b2 c5 94 3e d6 ae aa 3c
       -0.12783353 -0.09047338 0.2905708 0.020835321
000080 0d 27 ec bb b6 c5 94 bd d2 c4 65 bd 63 48 2b be
       -0.0072068037 -0.07264273 -0.056095906 -0.16726832
000090 4f cb 75 be 19 c5 3b 3e 7e 9d 78 3e d3 30 8a 3e
       -0.24003337 0.18336906 0.24278829 0.26990375
0000a0 a0 9a 0d be dc 35 14 3e 23 e9 cc bd df 73 2c 3e
       -0.13828516 0.1447367 -0.10005405 0.16841076
0000b0 11 71 52 3e 8d 63 63 3e c0 f3 4d 3e de 05 3a 3e
       0.20550944 0.22205944 0.20112514 0.181663
0000c0 1a 5a 0b 3d c3 b9 f6 3d e2 08 46 bd 98 f1 d0 3d
       0.034021474 0.1204715 -0.048348315 0.1020233
0000d0 73 b1 f2 bc bd 15 8c 3c 14 1e 44 be 67 af 19 bd
       -0.02962563 0.01710021 -0.19152099 -0.037520792
0000e0 99 87 dc bd 1b 6a ee bd 00 fa b8 bd f8 1d 3b be
       -0.10768051 -0.11641332 -0.09032059 -0.18273151
0000f0 cd 6e 07 3d 74 a6 3a 3e b4 67 8f 3e 22 07 18 3e
       0.033064652 0.1822756 0.28008807 0.14846471

layers.0.edge_model.mlp.net.3.weight f4 [64, 64]
000000 9e 63 d8 bd 17 bf 2b be 79 2f 92 3a 87 c9 d4 3c
       -0.105658755 -0.16772114 0.0011153064 0.025975002
000010 06 16 1a be 56 61 c6 3a 38 6e 58 3d fa a9 28 bd
       -0.15047464 0.001513521 0.052839488 -0.041177727
000020 75 5a f8 bd 3e 41 8e 3d ba f9 2a 3c 35 37 1a 3d
       -0.12126628 0.06946038 0.010435516 0.037650306
000030 84 f3 08 be d5 39 1d 3d 71 f4 02 be c5 f6 96 3d
       -0.13374144 0.03838523 -0.1278856 0.07371286
000040 af 7a b7 bd 3a 99 11 3d 80 bc fd bb f5 47 51 bc
       -0.08958947 0.03554652 -0.007743418 -0.012773504
000050 7a ab 81 bd 77 a5 60 3c 6c 75 bb bd 45 2a 19 be
       -0.06331535 0.013711325 -0.09153256 -0.14957531
000060 fa 6b b1 bd 3b c9 86 3d 49 f8 8d bd bb a8 a3 bb
       -0.08663173 0.065813504 -0.06932122 -0.0049944795
000070 b3 fe b2 bd ea 35 46 3d 97 1c 12 3d c8 95 0c 3b
       -0.08739986 0.04839126 0.035671797 0.0021451581
000080 53 85 e0 bd c4 7a 12 be d8 80 09 bd 0d bf b2 bd
       -0.109629296 -0.14304644 -0.03357014 -0.08727846
000090 e9 5b 84 3d 25 b8 22 be 52 55 27 3c 09 a6 94 3d
       0.06462843 -0.15890558 0.010213213 0.07258231
0000a0 7c 0b d8 3c 39 fd 96 3b 66 78 1d be 50 1b 9d 3d
       0.026372664 0.004607823 -0.1537796 0.07671225
0000b0 a3 31 8c bd da 09 21 be 51 2d a6 3d 59 6b b3 bd
       -0.06845405 -0.15726414 0.08114112 -0.08760709
0000c0 db 7a 22 bd 4f 8a 99 3d 9a 82 01 be 19 58 00 be
       -0.039667945 0.074970834 -0.12647477 -0.12533607
0000d0 2a 18 63 bd 02 ca 76 bd 7c 36 12 bc 8a 10 12 be
       -0.055442967 -0.060251243 -0.008924123 -0.14264122
0000e0 b2 40 21 bd 26 e2 b8 bd 78 51 a8 bd e8 e3 1b be
       -0.03936834 -0.090275094 -0.08218664 -0.15223658
0000f0 91 db 97 3c 00 12 92 bc ab f6 1c be ee 24 38 3d
       0.018537315 -0.017830849 -0.15328471 0.044957094
000100 c7 77 d9 3d db 4c 5f 3d d8 5a 2a bd 05 de 1c 3d
       0.10618549 0.054516654 -0.04159054 0.03829767
000110 5b 29 1a 3e 94 31 e6 3d bd e1 83 bc 3f 0d 4f 3e
       0.15054838 0.11239925 -0.016098851 0.20219897
000120 be 81 71 3d 1d d9 cf 3d b5 1a 03 3e bc 61 0d 3e
       0.058961622 0.10148833 0.12803157 0.13806814
000130 a1 f0 69 bd 3f e7 1f 3e 4e 2b bd bc 6c 77 ce 3d
       -0.057114247 0.15615557 -0.023091938 0.10081372
000140 47 93 55 bd 5d 05 cf 3c a2 aa a7 3d b1 59 c7 bb
       -0.052142408 0.025271112 0.081868425 -0.00608369
000150 3b 04 7e 3d ac c2 b1 3d a8 5a 0e 3e 11 62 fc 3d
       0.062015753 0.08679709 0.1390177 0.12323392
000160 f1 f3 00 3e 17 65 05 3e 72 87 fc 3d cf 9e c1 3b
       0.12593056 0.13026844 0.12330522 0.005908824
000170 ba f5 b8 3c 35 3b 33 3d c8 ec 44 bd e9 c4 91 bd
       0.022578109 0.043757636 -0.048077375 -0.07117636
000180 60 c9 1a 3d 8f 61 3d bd d9 64 80 3c 22 73 aa 3d
       0.037789702 -0.046235617 0.015673088 0.08322741
000190 b6 1a 0c b9 a9 9b dd 3d eb 25 30 bc 06 22 26 3e
       -0.00013361391 0.108207054 -0.010751228 0.16223916
0001a0 ea cd 19 3e b2 4e 53 bd bb e1 2a bc e5 87 af bd
       0.15019956 -0.05158872 -0.010429795 -0.08570842
0001b0 e5 f1 f9 bb 00 26 e5 bc c5 46 48 3b bb 92 8e bc
       -0.007627713 -0.027972221 0.003055976 -0.01740395
0001c0 c7 b6 09 bd 4e 3c 59 bc dc 74 35 bc 85 9b 1a 3e
       -0.033621576 -0.013259007 -0.011075225 0.15098388
0001d0 3e ed 86 3c c7 0e 5d bd 69 93 93 3d bd bb a8 3b
       0.016470548 -0.05396917 0.07205851 0.0051493333
0001e0 6b 1f e4 3d 90 c5 e9 3d 57 1f 83 3e f7 a8 fd 3a
       0.11138805 0.11414635 0.25609848 0.0019352724
0001f0 5e e1 b7 3d 45 e1 f4 3d 8c 63 a6 3c dd 1c 12 3e
       0.08978532 0.11957029 0.02031114 0.14268823
000200 ab 9f 33 3e b1 05 2c 3d e2 76 c8 3d 07 e5 99 bc
       0.17541377 0.041997615 0.097883 -0.018785967
000210 29 0e 86 bd 0b c8 5b 3d 42 80 09 3e d3 2d 65 3c
       -0.065456696 0.053657573 0.13427833 0.013987976
000220 12 27 ed 3d 00 1c 7c bd bd 5a 16 3e 6d d4 21 3e
       0.11579718 -0.06155014 0.14683051 0.1580369
000230 d1 0c a3 3d 39 9c 84 bc e0 41 06 3e f9 9d f6 3d
       0.07961429 -0.016187774 0.13111067 0.1204185
000240 32 b6 94 3d ec d7 d1 3d 20 73 42 3e 25 bc 3a bd
       0.072613135 0.10246262 0.18989229 -0.045589585
000250 ef c8 71 3d fb 4c ed 3d 76 dc 0c 3d f4 1e 24 3e
       0.059029516 0.115869485 0.034389935 0.16027433
000260 83 1d ea ba 16 75 ae 3d ae a6 75 3d 3d 74 a9 bc
       -0.0017861578 0.08518426 0.05997341 -0.02068531
000270 d4 ce d5 3d 17 94 09 3d e5 3d 13 bd 41 86 d5 3c
       0.1043984 0.033588495 -0.0359477 0.026064994
000280 2e 69 15 bd 8c e6 5c 3c 68 64 c6 3b b9 64 0d bb
       -0.03647726 0.013482701 0.00605445 -0.0021574928
000290 29 c1 46 bd eb d5 64 3c e7 ee 74 b8 17 bd 3f 3e
       -0.048524056 0.013967018 -5.839663e-05 0.18724476
0002a0 e0 28 11 3d 72 27 0b 3e c7 2d 05 3e 3c f9 b1 bd
       0.035439372 0.13589266 0.13005744 -0.08690116
0002b0 5e 66 cb 3d b1 55 01 3e 2a a5 88 bd 70 32 7e bd
       0.09931634 0.12630345 -0.066721275 -0.06205982
0002c0 18 77 1f 3e ae 2e 09 3e 3a 52 b7 bc 58 a7 dd 3d
       0.15572774 0.13396713 -0.022378076 0.10822934
0002d0 29 5b 70 3d bf 43 a3 bd a1 ac 0c 3d 3c e9 59 3d
       0.058680687 -0.07971906 0.03434432 0.053200945
0002e0 34 d6 bc bc 41 71 af 3d 09 06 1d 3d 72 4f 47 3e
       -0.023051359 0.08566523 0.038335834 0.194639
0002f0 1b 3c e9 3d a5 ac af 3d be 77 e8 3d 05 7c 94 3d
       0.11388417 0.08577851 0.11350964 0.07250217
000300 68 a2 fb bc e6 55 3b bb 8b 0c 37 3c f3 e4 76 bd
       -0.03071709 -0.0028585135 0.011172424 -0.060276937
000310 48 88 9b bd 9a 0a ce 3d f6 ae 11 3e 8e 3c 2b bd
       -0.07594353 0.10060616 0.14226899 -0.041805796
000320 e8 ea a0 3d e0 ca aa 3d fe bb 0c 3e 27 69 bb 3d
       0.07857305 0.083394766 0.13743588 0.091509156
000330 0a e8 17 3e 9e 72 86 ba 43 01 0d 3e 00 bd 34 3e
       0.1483461 -0.0010257547 0.13770013 0.17650223
000340 8a 18 c2 bd ac 24 6b bd 03 65 c8 3d ba 66 96 3d
       -0.09477337 -0.05740802 0.097848915 0.07343812
000350 9d f7 93 3b 9c 4b ad 3d 25 49 11 3c ed a4 91 3d
       0.004515602 0.08461687 0.008867537 0.07111535
000360 0d 5d bc bc 94 a1 0c 3e c8 33 d0 3d a1 f1 98 bd
       -0.022993589 0.13733512 0.101661265 -0.07467962
000370 95 21 94 3b a3 89 e3 3b 46 f0 aa 3d 4b 32 0a 3e
       0.004520605 0.006943898 0.0834661 0.13495748
000380 a8 ed 4a 3d 72 57 02 bd 4b 76 f9 3d 8e 55 31 3d
       0.049543053 -0.031821676 0.12180766 0.043294482
000390 26 bc 73 bd b4 95 d3 3c 39 23 99 bd d6 0f 83 3d
       -0.059505604 0.02582822 -0.07477421 0.06399505
0003a0 93 b6 4a bd 8a 75 47 3d 62 29 b5 3d 2e 58 c7 3c
       -0.049490523 0.04869608 0.08845784 0.02433404
0003b0 40 03 7c bd 6c d2 d3 bd 65 9e 7c 3d 6f 24 e7 3d
       -0.061526537 -0.10342869 0.061674494 0.11286246
0003c0 fc f2 b0 bd 0f f2 82 3d 7f 90 84 bd 3c e0 fa 3c
       -0.086400956 0.06393825 -0.06472873 0.030624501
0003d0 c0 bd 23 3e 60 dd f6 3d 27 dc 9d bd 76 ac a8 3d
       0.15990353 0.12053943 -0.07708006 0.08236019
0003e0 66 9d 91 3d 66 4b f5 3c db 63 76 3e 17 9d f2 3c
       0.071100995 0.02994318 0.2406153 0.029615922
0003f0 fe 63 d2 bc 27 4e 63 bd 8e 78 a9 3d 28 73 63 3d
       -0.025682446 -0.055494454 0.08274947 0.055529743

layers.0.edge_model.mlp.net.3.bias f4 [64]
000000 45 02 74 bd 33 52 38 bd 9e 1e 47 bd 07 26 93 3d
       -0.059572477 -0.045000266 -0.048613183 0.071849875
000010 e9 a3 57 3d 2b 86 9e 3d c7 d9 9d 3c 7b 42 a7 3c
       0.05264655 0.07740434 0.019268883 0.020417443
000020 91 e7 1b 3c c3 82 d3 3d c5 ad 80 bd a5 0f 19 3b
       0.009515659 0.10327675 -0.06283144 0.0023355272
000030 a4 dc d1 3d dc 57 c1 3d dc 45 2b bd ae 3a 09 3e
       0.10247162 0.09440586 -0.04181467 0.13401291
000040 55 a3 93 bd c9 00 3e 3d 65 5b 0c 3e c1 6c 79 bd
       -0.072088875 0.046387468 0.13706739 -0.06089473
000050 52 90 86 b9 de 6d d5 bd da b6 93 bc 0c b6 97 bc
       -0.00025666 -0.10421346 -0.018031526 -0.018519424
000060 56 7e d0 bd fc 53 09 bd 8b 64 d6 3d 06 fa fa bc
       -0.10180347 -0.03352736 0.10468396 -0.030636799
000070 18 89 fc 3d 4b 5b bd bd a8 6e 96 3d e1 46 11 3e
       0.12330836 -0.092459284 0.07345325 0.14187194
000080 0e b3 05 3e d6 1a 7d bc b6 54 b8 bd 37 6d 80 bc
       0.13056585 -0.015448293 -0.09000532 -0.015677078
000090 8e de 44 3d 59 61 2c 3d ac af 21 3e d1 3c 5f bd
       0.048063807 0.042085025 0.1578967 -0.05450136
0000a0 45 ca 36 bd 63 53 b2 3d 8f 85 80 3b 2c 5c 48 bd
       -0.044626493 0.08707311 0.0039221714 -0.048916027
0000b0 e4 06 12 3e 64 a3 9e bc 64 d0 b0 bd 52 74 82 3d
       0.14260441 -0.01936502 -0.08633497 0.063698426
0000c0 d8 ac d7 bd 07 ac b1 bc 45 f0 e6 bd e3 4f ac 3b
       -0.10531014 -0.021688474 -0.112762965 0.0052585467
0000d0 f3 c8 ee 3c d1 c1 81 3d 9d 49 19 bd b2 6b 14 bc
       0.029148554 0.06335796 -0.03742372 -0.00905888
0000e0 50 c2 15 3e e0 44 37 bd 15 62 55 bc d2 63 6b bd
       0.14624906 -0.04474342 -0.013023873 -0.057468243
0000f0 fd 8a 9c bd 26 e3 5c bd 53 13 c6 3d e6 77 32 3d
       -0.076436974 -0.053927563 0.096716546 0.043571375

layers.0.edge_model.mlp.net.6.weight f4 [8, 64]
000000 99 81 7c 3d 0a 71 9e 3d 19 84 d7 3d 9b 27 de 3d
       0.06164703 0.07736404 0.105232425 0.10847398
000010 34 df f2 3d 85 ac 9b 3d 28 64 f9 3d eb 29 da 3d
       0.11858979 0.07601265 0.121773064 0.106525265
000020 6b bc 6b 3d f5 68 0e 3d a5 84 18 bd c9 89 47 bd
       0.057552736 0.034768064 -0.037235875 -0.048715387
000030 bd 5d 19 3e be ac d4 bc ab 3c 6c bd 28 df bb bd
       0.14977165 -0.025961276 -0.057675045 -0.09173423
000040 84 06 74 bc fd 80 66 3d 89 7b aa 3d a8 52 0f bd
       -0.014894132 0.056275357 0.08324344 -0.034990937
000050 7c 58 27 3d fc 83 85 bd 67 73 4b 3d 5a 07 ca 3d
       0.04085587 -0.06519315 0.049670603 0.098646834
000060 b1 5b bd bc 0e 46 00 bd e5 a5 e0 3d db 05 ff bc
       -0.023115011 -0.03131681 0.10969142 -0.031130722
000070 d7 a2 04 3b 9c 61 a2 bc 51 82 e4 3d a8 3b 87 3d
       0.0020238662 -0.019821934 0.111576684 0.066031754
000080 f5 46 8d bc 7e 0d ed 3d b6 0d 0c 3e 00 c3 03 3e
       -0.017245749 0.11574839 0.13677105 0.12867355
000090 d0 6f 5d bd c2 00 86 3a bd fb 18 3e 4a 2d ef 3d
       -0.05406171 0.0010223615 0.1493978 0.1167856
0000a0 95 5a 49 bc 2c 72 e0 3d 33 b6 28 bd 01 cb 6a 3d
       -0.012289663 0.109592766 -0.041189384 0.057322506
0000b0 ab f0 0b 3e 7f b6 58 3d 26 83 e5 bb 4d ec f0 3d
       0.13666026 0.052908417 -0.0070041595 0.11763821
0000c0 01 f8 c3 3d 99 fc de 3d 23 ff 28 bd 65 15 66 3c
       0.09568787 0.10888023 -0.041258942 0.014043187
0000d0 c1 d0 91 3c 67 d8 56 3a 03 6c 5b ba ec fe be bc
       0.017799737 0.00081956986 -0.0008370282 -0.023314916
0000e0 84 2e 8d 3d 7b 3d bf 3d ea be 86 3b 76 a9 0a 3e
       0.06893638 0.09337898 0.004112114 0.13541207
0000f0 c3 5a a2 3d 8d fc 64 3d b0 89 ce 3d 53 88 8b bc
       0.07927468 0.055904914 0.100848556 -0.017032778
000100 fb 0b 40 bd 7d 2a 25 bd 8b 3d cd 3c b4 9b c4 bd
       -0.046886425 -0.040323723 0.02505376 -0.096000105
000110 08 79 a9 bd bc b3 21 be 11 95 a2 bd 82 ab 0d 3c
       -0.08275038 -0.1579122 -0.079385884 0.008646848
000120 b7 27 e4 ba d0 fd 19 be d2 58 a8 bd 8e 09 0d 3d
       -0.0017406855 -0.15038228 -0.08220066 0.03443294
000130 4e 09 cd bd 35 90 ac 3a 9e fb 8b bc 94 8f 0e be
       -0.1001154 0.0013165536 -0.017087754 -0.13921958
000140 0d 4a 89 bd 88 76 c9 bd b8 bf 67 ba a1 c3 46 be
       -0.06703577 -0.09837061 -0.0008840519 -0.19410564
000150 ef 37 b6 3d 87 97 98 bd 71 10 4f 3d ed 3a d4 bd
       0.08897387 -0.074507765 0.05055279 -0.10362802
000160 92 31 02 be 61 07 cd 3c 97 fe 23 3d 97 6b ae bd
       -0.12714222 0.025027933 0.040037718 -0.08516615
000170 e6 f5 0f be 96 33 10 be 37 01 f1 bd 7f 5f 8f 3c
       -0.14058647 -0.14082178 -0.1176781 0.01750159
000180 6c 89 36 bc 4a 57 7d 3d e0 9d db 3d bb 4b 13 be
       -0.011141162 0.061850823 0.10723472 -0.14384358
000190 58 04 74 3d 8f 61 61 3d b1 5d 57 bd 88 df 14 be
       0.059574455 0.05502468 -0.052579585 -0.14538395
0001a0 27 76 fc bd b1 7f d9 3c 04 23 7d 3d 39 5d ee 3c
       -0.12327223 0.026550146 0.06180097 0.029097186
0001b0 50 bf 69 bc b8 38 d4 bd b8 ba 66 be ba 5b 1b be
       -0.014266804 -0.10362381 -0.22532165 -0.1517171
0001c0 87 32 7d bc 68 f5 04 bc 6a 85 89 3d 8c c4 f7 bd
       -0.015453941 -0.00811515 0.067149 -0.12098035
0001d0 55 68 38 3d 5f 12 a9 3d 37 37 15 be f8 30 b8 bd
       0.045021374 0.08255457 -0.14571844 -0.08993715
0001e0 49 ee 88 bd dc a2 b7 bc df 6d b2 3d 52 22 6c bc
       -0.06686074 -0.022416525 0.087123625 -0.0144124795
0001f0 1c 10 10 3c 9e 55 98 3d 3e 8c 0a 3d d8 06 0a be
       0.008792903 0.07438205 0.03382515 -0.13479173
000200 84 ad 3a bd 30 ae cb 3c af ea 0d 3d 1b bf 22 3d
       -0.045575634 0.024863333 0.03464764 0.039733034
000210 f4 d5 0f 3e a5 9e 15 3e 07 e6 39 bb e5 bd c0 bc
       0.1404646 0.146113 -0.0028365867 -0.023528049
000220 ef 71 c5 3d a2 87 3b 3d 8d 5f e5 3d fe a1 c3 3d
       0.09640872 0.045783646 0.111998655 0.09552382
000230 b2 35 a1 3d ed bb de 3d cd 6d dc 3d 26 e0 f1 3d
       0.0787157 0.10875688 0.1076313 0.11810331
000240 71 cc 9e 3d 7e 9e 64 bd a3 a1 e7 3d f6 28 af 3d
       0.07753838 -0.055815212 0.11310127 0.085527346
000250 80 73 60 bd 83 0b 06 3c 7b 5f ff 3d 27 5a f2 bc
       -0.05479765 0.008181456 0.12469383 -0.029584004
000260 22 c7 52 3c 91 d5 91 3d 75 57 f7 3d 55 68 01 3d
       0.01286486 0.07120813 0.12077228 0.03159364
000270 ee e0 62 bd 4d 04 0e 3d d1 d9 54 bc c7 6f 39 3d
       -0.05539029 0.03467207 -0.012991385 0.045272615
000280 13 b6 45 bd ba 6d 12 3e ff 06 42 3d b5 e0 87 bc
       -0.048269343 0.1429967 0.047369953 -0.01658664
000290 d7 26 e1 3d d4 42 1c 3d f1 46 36 3e 0d 38 f4 3c
       0.10993736 0.03814967 0.178005 0.029811883
0002a0 48 e8 18 3d f2 bf aa bd 8b 8d 64 bd 5b 01 da 3c
       0.037330896 -0.08337392 -0.05579905 0.026611974
0002b0 21 83 0f 3e b9 c3 19 bd 31 60 f9 3d 51 e8 ec 39
       0.14014865 -0.03754017 0.1217655 0.00045186517
0002c0 fd 1e 90 bd d7 f6 a5 bc ee 4c 0f bd e7 fe 73 bd
       -0.070371605 -0.020259304 -0.034985475 -0.059569266
0002d0 7b 95 50 bc 3e 34 03 3c eb 9f b6 3d 0d a1 af 3d
       -0.012730951 0.008008061 0.08917221 0.0857564
0002e0 cf 8b dc 3c 06 a3 42 3c ed fd ef 3b 3e 41 7b bd
       0.026922135 0.011879688 0.0073239715 -0.061341517
0002f0 7b 6a 28 3e 38 94 11 3e 29 64 39 bd 1a 98 af bd
       0.16446869 0.14216697 -0.045261536 -0.08573933
000300 fe 03 a2 bd 8e f5 3b 3c 56 1f 1d 3d 2d 16 5d bd
       -0.07910918 0.011472119 0.038359962 -0.053976227
000310 35 c1 d9 3d 1b 40 26 3d 1a a6 00 bd e9 53 af bd
       0.106325544 0.04058848 -0.031408407 -0.085609265
000320 72 72 3b 3e c3 04 1e 3e 05 63 43 3d 9c 9c 5a bc
       0.18305376 0.15431504 0.047701854 -0.013343003
000330 28 35 ef 3d 54 76 17 3e 25 d3 9d 3a 6d 8f 23 3e
       0.116800606 0.14791232 0.0012041075 0.15972681
000340 f3 91 7c bb 95 5a 53 3c 10 82 09 3e e2 89 b9 3b
       -0.003853914 0.012900014 0.13428521 0.005662189
000350 8f 76 3a bb 4a 07 e3 bc 99 9e 98 bc a7 1b 0d 3e
       -0.0028452014 -0.027713437 -0.018630313 0.1378008
000360 82 19 c9 3d ba 71 ae bd 23 04 32 bd a2 d3 62 3d
       0.09819318 -0.08517785 -0.043460976 0.05537761
000370 52 59 af bb 3f 3e d4 3c 77 46 be bd 94 c8 fa 3d
       -0.005351224 0.025908588 -0.09290784 0.122452885
000380 0d c6 d6 3d b0 e3 8b 3d 84 fc fc bb d7 91 1b bd
       0.10486994 0.06830537 -0.007720532 -0.03798088
000390 9e 31 f1 3c 12 12 ab 3d 7d b4 b6 3c 9e b2 04 3e
       0.029442605 0.08353056 0.02230286 0.12958762
0003a0 47 a8 8d 3d df 93 ec 3c f4 84 c0 3d 17 e7 c5 3d
       0.06916862 0.028879104 0.09400359 0.096632175
0003b0 52 cf 72 bd 65 36 9a 3d 82 ef 8c bc 65 a4 5a 3d
       -0.059279747 0.07529906 -0.01720405 0.053379435
0003c0 be 46 48 bc de 2e f9 3d a6 7c 9a bd 0b b6 ab 3d
       -0.0122238975 0.12167142 -0.07543306 0.08384331
0003d0 a1 41 a7 bd f2 e7 9d 3d 08 0a 85 3d 48 6a b8 bc
       -0.081668146 0.07710256 0.06496054 -0.022511616
0003e0 eb 21 8d 3d b9 4a 2c 3e f6 9d df 3d 0c 07 96 bd
       0.06891235 0.1682538 0.109188005 -0.07325563
0003f0 db 79 5c 3d aa 92 13 3e c0 5a a3 3d 45 da 41 3d
       0.053827148 0.14411417 0.079762936 0.0473273

layers.0.edge_model.mlp.net.6.bias f4 [8]
000000 f8 1b 03 3e 72 0c 1c be 4a 66 0d 3e 2d dd 6f 3c
       0.12803638 -0.15239123 0.13808551 0.014640135
000010 21 17 b8 bd 2f df ec 3d bc 62 f1 bd 68 3d b6 bc
       -0.089887865 0.115660064 -0.1178641 -0.022246078

layers.0.node_model.mlp.net.0.weight f4 [64, 12]
000000 dd 9c 99 3d 38 e4 3c 3d aa 71 35 3e 0b 91 4e be
       0.075006224 0.046116084 0.1771914 -0.20172517
000010 91 6a 17 3e 88 e0 24 3e a5 4f 2d 3e 22 87 dd bd
       0.14786746 0.16101277 0.16924913 -0.1081679
000020 6f 9a 36 3d 2e 29 99 3d 9b c0 90 3e d8 9a 3d be
       0.044580873 0.074785575 0.28271946 -0.185161
000030 69 29 92 be 69 1f b2 be 0e 53 99 3c c9 98 9c be
       -0.28547218 -0.3478959 0.018716361 -0.30585316
000040 ad 6e 7d bd 1b e7 01 be 77 31 f4 3c b2 f4 5e be
       -0.061873127 -0.12685816 0.029808743 -0.21773031
000050 1f f7 2a 3e ce ca 92 be f5 0f 1e be 0b cc 54 3d
       0.16695832 -0.28670353 -0.15435775 0.051952403
000060 fc b8 9b be 87 32 d1 3c 1a cb 14 be 2d e7 3c be
       -0.3041457 0.025536789 -0.14530602 -0.18447562
000070 5b c6 4b 3e 9f 63 b0 bd 59 78 7f 3d 6c 25 06 be
       0.19899885 -0.08612751 0.06237063 -0.13100213
000080 0a 5f 04 3e bf 73 85 3e 4d f3 93 3e 22 df 3d be
       0.1292688 0.2606487 0.2889656 -0.1854215
000090 85 e8 bd be 17 d8 91 be 70 67 95 3b 8c 3e 43 3d
       -0.3709146 -0.28485176 0.00455945 0.04766707
0000a0 7d 04 61 3e e6 2c 58 3d 7b e4 b5 3e fe 67 1f be
       0.21974368 0.052777193 0.3552588 -0.15567014
0000b0 c5 36 28 be 9a 0a a1 bc dd c8 1a 3e fc 04 1e be
       -0.16427143 -0.019658376 0.15115686 -0.15431589
0000c0 02 ec 85 3e dc 9e 2d 3d 90 e6 5b 3e cb cb 94 3e
       0.26156622 0.04238783 0.21474671 0.29061732
0000d0 f4 ad 99 3e 94 e2 84 3e 29 23 68 bd e4 c4 c8 bd
       0.30015528 0.25954115 -0.056674156 -0.09803179
0000e0 af 5e 14 3e 75 82 87 3e 94 98 38 bc 31 12 48 bd
       0.14489244 0.26466718 -0.011266846 -0.048845474
0000f0 cf a1 0a bd 1f bf a8 bd 2b c1 11 3e 34 3a 53 be
       -0.03384572 -0.082395785 0.14233844 -0.20627671
000100 c0 17 81 3e c4 ec a8 bc ff c3 39 be d3 54 c8 bd
       0.25213432 -0.020620711 -0.18141173 -0.09781804
000110 10 84 25 be 54 54 72 be 3f 2a 93 3c 14 61 5e bd
       -0.16163659 -0.23664981 0.01796448 -0.0542918
000120 d3 4c aa bd 71 4a 1c bd 7e 1b d8 bc 57 e7 65 3d
       -0.08315434 -0.03815693 -0.026380297 0.056128826
000130 f3 2d 9e bd e7 73 09 bc 33 0c d9 38 81 6a 62 bd
       -0.07723608 -0.00838945 0.000103496386 -0.05527735
000140 a0 49 f5 3d 79 50 cc bd 74 dd a7 3d e8 3f 06 3e
       0.119769335 -0.099762864 0.08196536 0.13110316
000150 bd dd 29 3d dd 5b 59 3e 26 0f 3d be 7f 75 80 bc
       0.04147123 0.2122645 -0.1846281 -0.015681027
000160 25 c9 58 be 8f 06 43 be ed d5 da 3d 69 d1 6b 3e
       -0.2117048 -0.1904547 0.10685334 0.23029102
000170 36 b4 16 be 80 eb b7 bd 86 be 33 be 12 bc d4 39
       -0.14717183 -0.08980465 -0.17553148 0.00040575914
000180 00 f3 4f be 06 86 68 be d6 58 08 bd 28 ab 93 3e
       -0.20307541 -0.22707376 -0.033287846 0.2884152
000190 89 aa 90 3d 22 ee 0e be f5 fb 56 3e d6 28 6e 3e
       0.07063777 -0.13958028 0.20994551 0.23257765
0001a0 7c fe 5d 3e b6 07 c3 3c 20 39 4e bd e7 94 55 3e
       0.2167911 0.023807388 -0.050347447 0.20857583
0001b0 e9 cd 44 3e 6a 59 63 3e 38 7e 71 3e c0 93 96 bd
       0.19219173 0.22202078 0.23583305 -0.073524
0001c0 ae 69 88 3e 22 e9 14 3d 8d 96 9d 3e 89 10 9b 3e
       0.26643127 0.036355145 0.30778924 0.30286053
0001d0 05 e7 84 3e 7e 21 5c 3e c5 f9 52 3e c9 bd e8 bd
       0.25957504 0.21497151 0.20603092 -0.11364324
0001e0 18 ce c4 bd e7 0c 79 bd 4d 4d 0f be 00 64 64 3e
       -0.09609622 -0.06080332 -0.13994332 0.22303772
0001f0 ce c8 3c 3d 18 8f bc bd d9 63 d1 bd 81 25 72 be
       0.04608994 -0.092069805 -0.102241226 -0.23647119
000200 fe b8 2b 3d be 62 8d 3e 13 c9 2e 3e 42 9e 7a 3e
       0.04192447 0.27614397 0.17068891 0.24474433
000210 75 c3 67 3e 6e 20 0b 3e a0 17 3b 3c 5b ec 50 be
       0.22633155 0.1358659 0.011419207 -0.20402662
000220 99 27 6a 3e 66 c4 60 be 33 f3 14 be c3 c4 03 3e
       0.22866668 -0.2194992 -0.14545898 0.12868027
000230 3d 71 30 3e 8c 2f 06 be 4a c4 28 3e 79 f7 82 be
       0.17230697 -0.13104075 0.16481128 -0.25579432
000240 7f 8a 60 3d 99 ad d5 3d 89 5b 26 3d 18 20 02 be
       0.05481958 0.10433502 0.04061464 -0.12707555
000250 91 97 49 be 65 0a 69 3e 42 60 54 3d f7 65 01 be
       -0.19686724 0.22757871 0.05184961 -0.12636553
000260 52 5d 87 3e 27 bf 7c bd e4 8f 25 bd a1 f0 7c 3d
       0.26438385 -0.061705735 -0.040420428 0.06175292
000270 ae 79 56 3e 62 ab e4 bd f9 db 33 3b a8 ec dc bd
       0.20944855 -0.11165501 0.0027444346 -0.10787326
000280 b6 e1 0b be 1a 6e 0b bd 27 b0 f1 bb cd 5d 18 3e
       -0.1366032 -0.034040548 -0.0073757353 0.14879532
000290 28 97 52 be 81 6a 23 3e a2 ee 68 3e f6 7b 22 bd
       -0.20565474 0.15958597 0.22747281 -0.039669
0002a0 dd 88 2e 3c 6b 90 22 3d a1 d7 72 be 9e 6b 38 3e
       0.010652748 0.03968851 -0.23715068 0.18009803
0002b0 bb 5b 31 bd cd 02 35 3b d5 7a 0b 3e 25 6b f3 3d
       -0.04330037 0.0027620078 0.13621075 0.118856706
0002c0 4a 1a fc bd f5 e6 4f be e6 c4 8d be db ac 6e be
       -0.12309702 -0.20302947 -0.27689284 -0.23308127
0002d0 f8 43 76 bd 3e 2d 8a be 90 44 f8 bc 44 22 33 be
       -0.060123414 -0.26987642 -0.03030613 -0.1749354
0002e0 b7 59 13 3e d3 3e 5f 3e 27 67 67 3e d7 aa 58 be
       0.14389692 0.2180131 0.22597943 -0.2115892
0002f0 0e b6 6a be 1e e1 a5 3d f3 ef 2b bd 48 d5 4c 3e
       -0.22921011 0.08099578 -0.04197688 0.20003235
000300 0e a1 7f be 45 9b 88 3e 07 ab 45 be 79 03 67 be
       -0.24963781 0.2668096 -0.19303523 -0.22559918
000310 9f 30 5c bc c3 18 16 be a2 dd 20 be 14 dc 32 3e
       -0.013439327 -0.14657883 -0.15709546 0.17466766
000320 61 d5 71 3e c3 7f 3c 3e 05 2d b8 3c 84 f6 db bc
       0.23616554 0.18408112 0.022482404 -0.026850946
000330 8f b1 e2 bd 9a 50 8b 3e a5 c8 f8 bd 5b dd 7a be
       -0.11069023 0.27209932 -0.12147645 -0.24498503
000340 e7 e0 84 3e 5a 96 0d bd ce c4 53 3e 04 d8 93 bd
       0.25952837 -0.034567215 0.20680544 -0.07218936
000350 bf f1 79 3e 2f cb 43 be e4 0c 24 3e ee a3 74 3e
       0.24408625 -0.19120477 0.16020542 0.23890659
000360 c1 76 e0 ba 8f 70 32 3e 7f ff 58 3c 15 5d 8d be
       -0.0017125235 0.1742575 0.013244509 -0.27610078
000370 60 45 e7 3d aa ac 55 be ae 9c 0e bc 4c af 81 be
       0.11292529 -0.20866647 -0.008704348 -0.25329053
000380 ee a2 19 be 68 42 cc bd 39 5a bf bd d5 88 96 be
       -0.15003559 -0.099736035 -0.093433805 -0.2940127
000390 58 9d 0a be f1 52 77 be fc 36 50 be b2 b3 75 be
       -0.13536584 -0.24152733 -0.20333475 -0.2399433
0003a0 71 5e f5 bd c6 67 8d bd 92 15 73 3e b0 dd 1a be
       -0.11980904 -0.06904559 0.23738697 -0.1512363
0003b0 68 de 1c be 70 5b 46 be 51 a5 4c 3e f4 dd 30 bc
       -0.15319216 -0.19370818 0.19984938 -0.010795105
0003c0 96 37 30 bd d8 c4 2c 3e c2 c1 14 be 5e 43 72 bd
       -0.04302176 0.16871965 -0.14527038 -0.059146278
0003d0 25 f8 93 3e b0 2b 06 3e dc 25 4c be 1f 34 8a bd
       0.28900257 0.13102603 -0.19936317 -0.067482226
0003e0 dc 72 3e 3d 31 26 04 3e b7 d0 1d be f5 2a 65 3e
       0.046496257 0.12905194 -0.1541165 0.22379668
0003f0 98 db 07 bc 22 e8 4d be 32 83 78 3d 8f a8 65 be
       -0.008292101 -0.20108083 0.060671993 -0.22427581

layers.0.node_model.mlp.net.0.bias f4 [64]
000000 45 5e 4f 3e 1a e2 6e 3e d4 22 b8 bd bf 07 b1 3e
       0.20250805 0.23328438 -0.08991018 0.34576222
000010 a3 3d 85 3e 37 4d c0 3d e8 64 07 3d 7b d6 c0 bd
       0.26023588 0.093897276 0.033055216 -0.09415909
000020 87 94 e0 bd 87 9d 82 3d 59 e9 1d be bd 61 1d 3e
       -0.10965829 0.06377702 -0.15421046 0.15369315
000030 d1 36 80 be ef 7b 7c be b5 c4 dd bd d0 f0 47 3e
       -0.25041822 -0.24656652 -0.108285345 0.19525456
000040 a7 5d 95 3e f5 0d 3e be 33 1f 45 be 1a a2 96 3d
       0.29173014 -0.18560012 -0.19250183 0.07355137
000050 53 de 20 3c 04 a8 72 be 98 a9 94 3d b6 b0 43 be
       0.009818631 -0.23696905 0.0725891 -0.19110379
000060 a7 43 85 3b f3 bb 3d 3e e9 9e 90 3e ff 6b 34 bc
       0.0040669027 0.18528728 0.2824624 -0.011012076
000070 d7 dc 70 3e d2 3e 54 a9 1d 7f a4 3e e5 f8 df 3e
       0.23521744 -4.7127944e-14 0.3212823 0.4374458
000080 1d f3 72 bc 65 b1 de 3c 64 86 73 ac 31 f7 69 3e
       -0.014828471 0.027184198 -3.4606979e-12 0.22848202
000090 d8 cf b9 b4 25 9d 3a 3e 43 b0 94 3d 6a b9 bd 3e
       -3.4610161e-07 0.18224008 0.07260182 0.37055522
0000a0 54 d6 6c 3e 3f db 4a 3e e7 25 76 be 51 b6 f8 bd
       0.23128635 0.19810198 -0.24037896 -0.12144149
0000b0 25 c5 17 be ad d9 03 3e a6 21 f7 3b 1e e5 2f 3e
       -0.14821298 0.12876005 0.007541853 0.17177245
0000c0 05 30 d4 3c 45 69 d9 3b a5 17 2d 3e 53 07 ca bd
       0.025901804 0.0066348636 0.16903551 -0.09864678
0000d0 5e 98 4a 3e 60 25 e0 bb 10 5c 8b be a8 77 a4 3d
       0.19784686 -0.006840393 -0.27218676 0.08030635
0000e0 b0 24 ac 3e 0d 42 26 bd cb 02 ac 3e dd ec d3 bc
       0.3362174 -0.040590335 0.3359588 -0.025869781
0000f0 0c 58 26 be f4 45 54 bd f0 10 1e 3e bc 2b 1a be
       -0.16244525 -0.051824525 0.15436149 -0.15055746

layers.0.node_model.mlp.net.3.weight f4 [64, 64]
000000 3d c3 0d 3e a6 e6 13 bd 24 e7 b3 bc 41 55 ae 3c
       0.13844009 -0.036108635 -0.021960802 0.021280887
000010 20 f1 a5 bd 1e 88 a3 3d 64 c4 99 ac f7 95 1c bd
       -0.081026316 0.07984947 -4.3703253e-12 -0.038228955
000020 00 83 07 bd fd fb eb 3d d2 09 af 3d 72 09 28 3d
       -0.033083916 0.11522672 0.08546795 0.041024633
000030 88 03 01 bd 3e 6d 3e 3d d4 45 bd bb b4 da fb 3d
       -0.03149751 0.0464909 -0.0057761464 0.12297574
000040 d4 b5 42 3d 39 73 d3 3d 26 e1 c1 3d a6 25 a0 3c
       0.047536686 0.10324711 0.09466772 0.019549202
000050 ad b2 da bd 50 5e e4 3b 85 4d a4 bd 74 79 f3 3c
       -0.10678611 0.0069692507 -0.08022598 0.029721
000060 55 a9 60 bb bd 44 e1 3d d6 a6 de bc 05 4c 60 af
       -0.0034280617 0.10999439 -0.027179163 -2.0399689e-10
000070 99 3c 50 3d 2f 97 b5 2d 59 6b b1 bc aa 0a 0e 3e
       0.05083904 2.0644457e-11 -0.021657633 0.13871256
000080 ed 35 ed 3d 5a 5e 8d 3c 60 58 8e a8 9f af 31 36
       0.11582551 0.017256904 -1.5803493e-14 2.647728e-06
000090 ef 8e 22 b2 fc 20 fc bb 7a 61 33 b0 f5 0f 19 3d
       -9.46214e-09 -0.0076943617 -6.5258343e-10 0.037368733
0000a0 29 e2 bc bc dc 11 96 3c 15 65 de bd fa 65 58 3d
       -0.02305706 0.018319063 -0.108591236 0.052831627
0000b0 4c b9 84 bd 4e 8f 9d bd 58 f3 76 b7 97 cf 1d bd
       -0.06480655 -0.07693349 -1.47194005e-05 -0.03852805
0000c0 7d 25 d7 2c 19 0d 78 bc c1 48 07 bc b5 95 27 3d
       6.1148296e-12 -0.0151398415 -0.008257092 0.040914256
0000d0 2a e6 aa 3b 3c 41 b6 29 f9 41 27 3d e4 ce 50 bd
       0.005215426 8.09374e-14 0.0408344 -0.050978556
0000e0 93 2b ee 3d 45 4e 84 3d a4 00 d7 3d 26 f4 68 bd
       0.11629405 0.06460241 0.10498169 -0.056873463
0000f0 aa 87 92 3d d3 e9 2c 3c 45 e6 ad bd 4c e9 09 3e
       0.07154782 0.010553795 -0.08491186 0.13467902
000100 d6 0e a2 3c 89 a2 5c 3d 21 77 0d 3e 50 88 25 3e
       0.019782465 0.053865943 0.13814975 0.1616528
000110 a8 2a 0f 3e 1c 67 c2 bd 0d b5 c1 3c aa 4d 38 3d
       0.13981116 -0.09492323 0.023645902 0.04499594
000120 7e 16 99 3c 8e ca 9b bd 4c fa 12 bd d4 45 fa 3d
       0.018687483 -0.076069936 -0.035883233 0.1222035
000130 09 67 98 3d ac d8 da 3d 5f b2 98 bb 2f 63 ff bc
       0.074415274 0.10685858 -0.0046599354 -0.031175224
000140 66 ed 66 3d 17 64 12 bd 91 8e 8b bd 3b e6 8f 3d
       0.056378745 -0.035739984 -0.06814302 0.07026335
000150 38 f0 03 3e 8a 53 88 bd 2c 0d c8 bd a0 94 37 3d
       0.12884605 -0.06656559 -0.09768137 0.044819474
000160 db dc 09 bd 60 28 2e bd fb 34 6a ba 02 e6 4a 28
       -0.03365789 -0.042518973 -0.00089342863 1.12631275e-14
000170 8d 55 b2 bb c5 7a 01 af 93 b9 c2 3d 79 f7 20 3e
       -0.0054423274 -1.1776098e-10 0.09508052 0.15719403
000180 17 af 4a bc a9 35 75 3c d0 62 f5 2c 32 f3 d8 3c
       -0.012370846 0.014966407 6.974289e-12 0.026483152
000190 a2 4e 92 b3 19 72 d3 3c 91 78 47 3d 7a 3b 5b 3b
       -6.812958e-08 0.025811242 0.048698965 0.00334522
0001a0 53 1b 5e bb ba 8a 7a 3c fd aa a8 3d 9c fc f1 3d
       -0.0033890798 0.015291864 0.082357384 0.118157595
0001b0 9d 3e a6 bd ad 5d 93 3d f3 28 03 b8 08 d0 89 3d
       -0.08117411 0.071956016 -3.127097e-05 0.06729132
0001c0 a6 fb c9 31 b1 07 7b bd 97 2b 17 3e 3b c5 58 3d
       5.878479e-09 -0.061286632 0.14762722 0.05292247
0001d0 35 71 8f bc c7 5b 11 2a 25 7b d7 3d f2 d0 90 bc
       -0.017510036 1.2910429e-13 0.10521535 -0.017677758
0001e0 d2 ce df 3d 15 b7 98 bc 1e 18 8c 3d d1 1d b8 3d
       0.1092812 -0.018641988 0.068405375 0.08990062
0001f0 42 83 7c bd 54 aa 5f 3c 33 91 83 3d 82 af bd bd
       -0.061648615 0.013651449 0.06424179 -0.09261991
000200 e5 dc 36 bc 49 75 b9 3c de 48 fc 3d 8a e2 2a 3d
       -0.011161064 0.022638934 0.12318586 0.04171995
000210 ae 17 d0 bd cc 5e 39 bd b4 99 7a 3c 56 ee 3c 39
       -0.101607665 -0.04525642 0.015295435 0.00018017864
000220 08 cd b5 3d 4d c2 74 3c 31 2a c6 3d 92 b0 9b bd
       0.08876997 0.014938903 0.09676016 -0.076020375
000230 a0 d1 d4 3d d7 7b 85 3c 28 74 18 bd 9d 7d e2 3d
       0.10391545 0.016294403 -0.03722015 0.11059115
000240 b6 d6 8e 3d 0e 05 b0 bd ea ce 5d 3b 11 79 6e 3d
       0.069745466 -0.08594714 0.0033845254 0.058220927
000250 59 28 00 3d 67 e8 44 bd b0 ea 97 bd fe d1 b2 bd
       0.03128848 -0.0480732 -0.0741781 -0.08731459
000260 fe 9c 9b 3d 62 85 51 3d 15 99 ee bd 82 3d f1 a9
       0.07598303 0.051152594 -0.11650292 -1.071322e-13
000270 59 ed 16 3d 75 87 e7 31 0e 00 d1 3d a3 46 03 3e
       0.036847446 6.7383845e-09 0.102050886 0.12819915
000280 c9 eb 39 bd ef fe b5 3b 58 21 e8 2a 2b cb 19 3c
       -0.045390878 0.005554072 4.1234616e-13 0.009386818
000290 b2 96 aa 32 33 ce 99 3d 4b 2f 0e bc d5 64 f1 3c
       1.9859133e-08 0.075100325 -0.008678268 0.029467026
0002a0 88 fd b3 3c 7d 7a 31 bd cd 50 cb bd b4 f8 9b bc
       0.021971479 -0.043329705 -0.09927521 -0.01903949
0002b0 1c 1e 38 bd 4c 88 dc bd c0 c0 83 3a 7b ca 4b bd
       -0.04495059 -0.10768184 0.0010051951 -0.049753647
0002c0 e9 8c a6 39 c2 c0 48 3d d2 60 5d 3d de ed f9 3c
       0.00031766974 0.049011953 0.054047413 0.030508932
0002d0 d9 42 37 3d b4 5b c2 ab b9 cd b4 3d 2b ba 09 bc
       0.044741485 -1.3809982e-12 0.08828301 -0.008406202
0002e0 0e 4d d1 bc 31 56 e5 3c d0 15 25 bd 3f 47 86 3d
       -0.025549438 0.0279952 -0.040304005 0.06556558
0002f0 91 51 58 3c cb 5b 32 3d 73 da 14 be 3e 86 3c 3d
       0.013203041 0.04354457 -0.14536457 0.04602646
000300 00 3f 1d bd 41 e1 a3 bd 11 ff 3c bd 92 97 03 bc
       -0.03839016 -0.08001948 -0.046141688 -0.008031743
000310 3a 5d 70 3d 1e b6 e1 bd 85 cf c5 39 89 a3 c3 3d
       0.058682658 -0.11021064 0.00037729382 0.09552676
000320 d0 52 a4 bd 40 39 cf 3c 68 41 4a bd c0 c9 ac 3c
       -0.08023608 0.025295854 -0.049378783 0.021092296
000330 1a 38 08 3d 4c 4e 9c bd af 66 19 3b 6d 17 02 3e
       0.033256628 -0.076321214 0.0023407151 0.12704249
000340 a6 f8 e9 b8 19 15 b1 bd b7 13 03 3c 17 2d a5 3a
       -0.0001115662 -0.08646602 0.008000306 0.0012601939
000350 28 ef 0e 3d df ec 4e bc 1d d5 a9 bc 5d 3e 88 bd
       0.034896046 -0.012629717 -0.020731503 -0.0665252
000360 dc 29 ad 3d f4 1d 96 bd ff e2 61 bd 65 92 cb 2d
       0.0845525 -0.07329932 -0.05514812 2.314344e-11
000370 1c 9f 39 bd 20 d7 76 29 c5 f2 7b bd ca 9d 25 bd
       -0.045317754 5.4809564e-14 -0.06151082 -0.040433683
000380 54 a7 6b 3d 78 66 7c bd 34 ba 9b 2a 05 2a c8 bc
       0.057532623 -0.06162116 2.7662735e-13 -0.024434099
000390 68 5c 80 2a 82 c1 e7 3d 8a 80 04 3d 25 a5 1c bc
       2.2801487e-13 0.113162056 0.032349147 -0.009560858
0003a0 25 35 0e be 09 87 0d 3c 7e e6 20 3c f0 4a df 3d
       -0.1388746 0.008638152 0.009820579 0.10902965
0003b0 7b b0 b7 bc b6 a2 d9 bd 55 ad 1c 3a 0a a3 05 bd
       -0.02242302 -0.10626738 0.0005976756 -0.03262619
0003c0 b0 40 8f b0 5e 43 28 3d 5a 46 1e 3d 9c 6f 7d 3d
       -1.0423005e-09 0.04107987 0.03864131 0.061874017
0003d0 8c f4 da bd 52 6b 46 b0 59 ad d7 3d bc 5a d5 3d
       -0.10691175 -7.218449e-10 0.1053111 0.10417697
0003e0 f6 54 58 bd 5a ff f0 3d 15 a9 77 3c 53 25 ad bb
       -0.0528154 0.117674544 0.015115996 -0.0052839904
0003f0 e7 16 95 bd 4a 0a 95 bd 47 05 8f 3d 49 ff 9c bd
       -0.07279759 -0.07277353 0.069834284 -0.07665879

layers.0.node_model.mlp.net.3.bias f4 [64]
000000 ea ee 61 bc 6c 36 48 3c 6f 64 73 3c c1 34 7d 3d
       -0.013789872 0.012220006 0.014855488 0.06181789
000010 39 5b ef 3d df 6f 5e 3d 22 f9 1e 3e f5 12 38 3e
       0.11687321 0.054305907 0.15524724 0.17975982
000020 01 6a 6e 3c 1e 26 80 3c e0 44 12 3e a5 4b a9 3d
       0.0145516405 0.015643176 0.14284086 0.08266381
000030 7c c7 a2 3d bd d5 3d 3e aa f6 8f 3d 34 0b 03 3e
       0.07948205 0.18538566 0.07029469 0.12797242
000040 21 12 fd bb be c2 c1 bd e1 7b 94 3b 2e ff 07 be
       -0.0077231084 -0.09460972 0.004531369 -0.13280937
000050 6e 23 a9 3d 87 33 21 3e 80 7c 69 bc 83 73 e7 3c
       0.08258711 0.15742312 -0.0142508745 0.028253322
000060 72 da 80 3d 20 db 9d bc ef 02 16 bc a0 1a 6b 3d
       0.06291665 -0.019269526 -0.009155973 0.05739844
000070 61 5c b8 bd 7a 8f 82 3c 2d c1 3e 3e 79 91 dd 3d
       -0.09001995 0.015937556 0.18628378 0.10818762
000080 55 4e 99 3d 65 85 b8 bc 2b 4c 59 3d 9d e8 27 bd
       0.07485644 -0.022524545 0.053051155 -0.04099332
000090 19 6b 28 bd 84 08 c5 bc 02 a5 6c 3e 07 5f e4 bd
       -0.04111776 -0.024051912 0.2310982 -0.111509375
0000a0 38 d0 a0 3d 02 b7 d9 bc 98 23 f1 3d 1d 93 a1 3d
       0.078522146 -0.026576523 0.11774367 0.07889388
0000b0 ba ea 7c 3d 7c fe ab bd a8 9f 0d 3e a8 32 40 3d
       0.06174729 -0.083981484 0.13830435 0.04692331
0000c0 58 44 a7 3d b7 77 89 3c 93 34 92 bc 94 ab a7 3c
       0.081673324 0.016780717 -0.017847335 0.020467557
0000d0 87 ad 63 3e d2 3c c3 3d dd ba 1c 3c a4 5f bb 3d
       0.22234164 0.09533085 0.009566036 0.091491014
0000e0 83 39 09 3e 91 51 35 3e 6a 37 b6 3d 5a b4 4a 3d
       0.13400845 0.17706896 0.08897288 0.049488403
0000f0 3a 53 69 3d bb e7 c2 3d 02 dd 80 bd fa 77 10 be
       0.056964137 0.09516855 -0.06292154 -0.14108267

layers.0.node_model.mlp.net.6.weight f4 [4, 64]
000000 9d 9d 32 bd cd 85 e3 bd 41 34 ed bd c1 fb 3b bd
       -0.043607343 -0.11109505 -0.11582232 -0.045894388
000010 e2 ae 42 3d 8e ec dc 3c da d3 85 bd 7d 27 2e bd
       0.047530062 0.026968267 -0.06534548 -0.042518128
000020 88 a9 d8 3d d8 29 65 ba 43 97 5e 3d 85 1a 40 be
       0.105792105 -0.0008741892 0.054343473 -0.18760116
000030 d1 2e 07 be 91 bf 9e bd 94 aa 9f 3b ff 19 8d bd
       -0.13201453 -0.07751382 0.0048726294 -0.06889724
000040 a4 df bb bd df 1d 93 3d 70 8c 09 be 77 4a c2 bc
       -0.091735154 0.07183432 -0.13432479 -0.023717148
000050 66 47 7b bd ef d6 df bd 28 8e e7 3c 92 1e ae bc
       -0.061347388 -0.10929667 0.028266028 -0.021254811
000060 37 a8 db bd 4c 3d a8 bd 7b e0 9d bd 0c cd 19 be
       -0.10725444 -0.082148165 -0.07708832 -0.15019625
000070 6f 0f 5f 3d f7 ae 4a 3d 91 95 ff bd f6 10 53 bc
       0.054458078 0.049483266 -0.124796994 -0.012882462
000080 bb e3 af 3c cd 8b 2d bc 30 ec 3d be 17 1f c7 bd
       0.021470895 -0.010592413 -0.1854713 -0.09722727
000090 f5 05 b7 3d f1 e4 35 bd 16 e1 15 bc a7 f8 87 3d
       0.08936683 -0.04440779 -0.009147903 0.066392235
0000a0 1e 17 5c bd d2 14 3a 3d 09 e7 e2 bd 58 0d bf bc
       -0.053732984 0.045430012 -0.11079223 -0.023321792
0000b0 e8 1c 6a bd ab f5 88 3d 44 b3 66 bd 42 35 2c bc
       -0.057156473 0.066874824 -0.056323305 -0.0105107445
0000c0 df c8 fb bd af 1e 48 bd 53 ad b7 bd a9 b9 55 bd
       -0.122941725 -0.048857387 -0.08968606 -0.052179012
0000d0 2d 28 b0 bd 91 44 0d 3c c7 9e a3 bc e7 93 0c 3c
       -0.08601413 0.008622305 -0.019973172 0.008580185
0000e0 d0 86 55 be e2 1e e6 bd d4 19 90 3c 26 10 b5 bd
       -0.20852208 -0.11236359 0.01759044 -0.08840971
0000f0 72 69 42 be 5f e2 9d bd ae b2 15 be 52 be 0e 3c
       -0.18985537 -0.077091925 -0.14618942 0.008712368
000100 ad 89 19 3d ab bf 11 3e 41 91 20 bd c6 89 15 bd
       0.037484813 0.14233272 -0.039201025 -0.036508344
000110 6a 92 44 3d 9e bd c2 3b f5 f2 f2 3d 9d d0 57 3d
       0.047991194 0.0059430143 0.118627466 0.052689184
000120 6b 3c c6 bb 92 ea b8 bb a8 19 d2 3d 7c 78 be 3d
       -0.006049683 -0.0056431973 0.102588 0.09300324
000130 88 a4 8d 3d b5 87 ca 3d f0 ff 9f bd f2 28 95 bd
       0.069161475 0.09889165 -0.07812488 -0.072832
000140 6f 53 22 bd 24 f2 ee 3d 79 14 65 bd e6 f9 33 3d
       -0.03963035 0.116672784 -0.055927727 0.043939494
000150 5e 71 f6 3d d7 af f9 3d 55 b4 04 bd 28 11 e3 3c
       0.12033342 0.12191742 -0.03239854 0.027718142
000160 c0 eb e7 3d 11 52 b7 3d 9f 4c 44 3d 2e c0 92 bd
       0.113242626 0.089512 0.047924634 -0.071655616
000170 6e b2 a8 3d b6 ab e7 3c 82 87 22 3e 1e 54 95 3d
       0.08237158 0.02828012 0.15872005 0.07291435
000180 ff 6f 16 3c 0e d0 e0 3d 19 59 b1 3d 4c 9e 47 3d
       0.009181975 0.10977183 0.08659572 0.048734948
000190 7e 13 e6 3c aa 03 df 3d ba 2d 34 3e 03 7a 05 3e
       0.028085466 0.10889371 0.17595568 0.13034825
0001a0 a8 35 d0 bb 68 2c a7 3d 5c 03 bc 3d 72 e4 11 3e
       -0.0063540526 0.08162767 0.09180328 0.14247301
0001b0 e8 df 25 3d 70 d5 3b 3d 4f 33 52 bc b8 88 1a bd
       0.040496737 0.045857847 -0.012829616 -0.03772804
0001c0 b2 e0 c9 bd 9c ac e9 3c 4f 30 7e 3c ab 58 04 3e
       -0.0985731 0.02852469 0.015514447 0.12924449
0001d0 25 c3 24 3e 07 b7 78 3d de c5 c5 bd 6d 04 e2 3d
       0.16090067 0.060721423 -0.09656881 0.110360004
0001e0 f5 81 5e 3e ba 86 ed bc ac 47 9f 3d e6 69 7a bd
       0.21729262 -0.028994907 0.07777342 -0.06113615
0001f0 1b 39 12 3d 48 6b 5c bc 18 f4 c4 bd 9f 54 92 3c
       0.03569899 -0.013453312 -0.0961687 0.017862616
000200 fb 67 23 3b d7 d5 85 3c 1c 4d c4 3d 87 5c 5a 3d
       0.0024933803 0.016337318 0.0958502 0.053310897
000210 14 a3 07 be a1 8c 91 bd 56 bd 6c 3d a4 60 10 be
       -0.13245803 -0.07106901 0.057797752 -0.14099365
000220 5e f2 e7 ba 22 51 a1 3c 6b 45 d4 bd 9a e0 5a bc
       -0.0017696132 0.019692007 -0.10364803 -0.013359213
000230 ec 3b ba bd 7b b5 d2 bd b9 a3 c1 bd 01 c0 41 bd
       -0.090934604 -0.10288521 -0.09455056 -0.04730225
000240 37 c7 88 3c c7 2b ed bc 82 ac 9a bd 2a 1a ae 3d
       0.016696556 -0.028951539 -0.075524345 0.08501084
000250 67 db 1f be 9e 68 89 bc cc 71 df 3c f1 99 66 bd
       -0.15611039 -0.016773518 0.027275942 -0.056299154
000260 db 76 84 3d 49 80 dc 3c 58 18 f9 bd 42 87 3c 3d
       0.064679824 0.02691664 -0.12162846 0.04602743
000270 26 c9 ce 3d ba d8 1b be a3 1f b8 bd 62 e7 e5 bd
       0.1009696 -0.15219393 -0.08990409 -0.112257734
000280 73 4c a9 3d 82 9d 1a 3b 31 2d 84 bd 4a c0 2e 3c
       0.08266535 0.0023592417 -0.06453932 0.0106659625
000290 85 e8 14 bd 06 e1 0e be 58 b2 4e be 1d 87 90 3d
       -0.03635456 -0.13953027 -0.2018522 0.07057021
0002a0 1f 10 bb bd ef 04 cb ba 40 c2 c9 bd 9e 71 ab 3c
       -0.09133934 -0.0015489141 -0.09851503 0.0209282
0002b0 37 c0 e9 bd f6 10 15 bd fc 4e 18 3d ac 59 e7 bd
       -0.11413615 -0.03639313 0.0371847 -0.112964004
0002c0 15 de 9a bd bc 1f 21 be 6b dc f9 bd 97 c8 d5 3d
       -0.0756189 -0.15734762 -0.122002445 0.1043865
0002d0 50 05 96 bb ea f0 73 3d ec 80 fe bd b0 9d af bc
       -0.00457827 0.059555925 -0.12426934 -0.021437496
0002e0 2d 01 cd bd 33 5d d5 3c fe c6 07 3b 6e 69 e2 bd
       -0.1000999 0.026045417 0.0020717974 -0.11055265
0002f0 5c 72 c0 bd bc 3e ec bd 9c cf 3e 3d e5 49 76 3d
       -0.09396812 -0.11535403 0.04658471 0.060129065
000300 78 35 98 bc dd 9e b2 bd 99 11 d2 3c 17 17 b4 3d
       -0.018580183 -0.08721707 0.025643157 0.087934665
000310 85 b9 86 bd 70 31 ab 3d 67 d4 d6 3d 10 96 a0 bd
       -0.06578354 0.08359039 0.10489731 -0.07841122
000320 13 1c 66 3d 05 37 3e 3d c9 29 23 bd 6a dc 52 3e
       0.056179117 0.04643919 -0.03983477 0.20591894
000330 d2 ef 38 bd a4 90 e4 3d 6e 3a ac bd d1 51 02 3e
       -0.045150585 0.111604005 -0.08409582 0.12726523
000340 37 20 f9 ba 7b 84 68 bd 13 b0 9f 3d f2 38 96 3c
       -0.0019006793 -0.05676697 0.07797255 0.0183377
000350 de 97 05 3e 58 a7 02 3e bd 2a 28 3d 3f 7f 71 3d
       0.13046214 0.12759149 0.041056383 0.058959242
000360 66 67 a2 bd 07 3f b8 bd 9e 41 1a bd 0c f7 32 bd
       -0.07929878 -0.089963965 -0.037660234 -0.043692634
000370 e7 1a e6 bd 1f 5b ca 3d e1 d8 3b 3d b3 be 3a bc
       -0.112356 0.09880661 0.04586113 -0.011398005
000380 e5 13 50 bb 8a f3 da 3d ae 5b a5 3d 52 f9 06 3d
       -0.003175014 0.10690983 0.08074127 0.032952614
000390 5e c8 7b 3c ae 52 3c 3e 35 20 bf 3d 06 45 70 3d
       0.0153675955 0.18390915 0.09332315 0.058659576
0003a0 83 fa 08 bc 94 68 67 3d fe 6a e6 3d f6 79 2d 3d
       -0.008360508 0.056496218 0.11250876 0.04235264
0003b0 ee 19 98 3d f5 de c8 bd de 61 a1 3d 42 2e fd 3d
       0.07426821 -0.09808151 0.07879995 0.123623386
0003c0 29 08 c4 3d 99 e3 24 3e d5 8e 9e bd b9 a5 03 3e
       0.09571869 0.16102447 -0.07742087 0.12856187
0003d0 5a 76 c2 3d 62 3a cb bd 67 3e 09 3e 0a 87 f2 3d
       0.0949523 -0.09923245 0.13402711 0.11842163
0003e0 97 81 9b 3d 45 24 15 3e e9 81 03 3d b6 69 04 3e
       0.07593077 0.14564617 0.032106314 0.1293095
0003f0 9e 20 17 bc 8b d9 c2 bd 49 4e 4f 3d ca 7c b3 3c
       -0.009224085 -0.09514149 0.050611768 0.02191009

layers.0.node_model.mlp.net.6.bias f4 [4]
000000 11 14 49 be 65 c5 a4 3c 9e 21 77 bc 5d 8c 22 3e
       -0.19636561 0.020113656 -0.015083699 0.15873857
